ml_model/traffic_light_model.pth (torch, 2245 bytes, 2 tensors)

fc.weight f4 [6, 8]
0	0x3e203c96	0.15648112
1	0x3c513a04	0.01277018
2	0xbe6a19e7	-0.22861443
3	0x3b1155cf	0.002217639
4	0x3e328a91	0.17435671
5	0xbd42d0d6	-0.047562443
6	0xbce66992	-0.028126512
7	0xbcd0b738	-0.02547799
8	0xbcb0bf4c	-0.021575592
9	0x3c4d55a3	0.012532624
10	0xbd59ea23	-0.053201806
11	0x3b27dd5b	0.0025614116
12	0xbb75c41e	-0.0037500928
13	0xbd467acf	-0.048456963
14	0x3e1960a0	0.14978266
15	0xbcdee4f5	-0.027208785
16	0xbd80f0ae	-0.06295906
17	0x3e7a8a2e	0.24466774
18	0xbe839b26	-0.25704306
19	0xbbd233cf	-0.0064148675
20	0xbd103baf	-0.03521317
21	0xbd6dadbc	-0.058027014
22	0xbd5f85f3	-0.054571103
23	0xbd15871b	-0.0365058
24	0xbd991da3	-0.07476356
25	0x3bf65f98	0.00751872
26	0xbe8a4c4f	-0.27011344
27	0xbce01384	-0.027353056
28	0xbd2cfe80	-0.042234898
29	0x3e605b36	0.21909794
30	0xbd906fdb	-0.07052585
31	0xbd06e5e7	-0.032934096
32	0x3d51e361	0.051242236
33	0x3d3eec8a	0.0466123
34	0xbe46cf40	-0.19414997
35	0x3d4a31e7	0.049363997
36	0x3d8aec40	0.06783342
37	0xbd4ac023	-0.049499642
38	0x3c8e049b	0.01733618
39	0xbd558843	-0.052131902
40	0xbdb343f3	-0.08753195
41	0x3bef672e	0.007306001
42	0xbe8f243f	-0.2795734
43	0xbcb9630f	-0.022630243
44	0x3cbb7f94	0.022887982
45	0x3bd73964	0.006568121
46	0xbe1555d9	-0.1458353
47	0x3e4a9966	0.1978508

fc.bias f4 [6]
0	0xbc6e3b94	-0.014540572
1	0x3e6628b5	0.22476466
2	0x3e0b4a09	0.13602461
3	0xbee95706	-0.45574206
4	0x3e13ca63	0.14432673
5	0xbe908bb7	-0.28231594
